Data(category=[1], x=[2048, 3])
Net(
  (sa1_module): SAModule(
    (conv): PointConv(local_nn=Sequential(
      (0): Sequential(
        (0): Linear(in_features=6, out_features=64, bias=True)
        (1): ReLU()
        (2): BatchNorm1d(64, eps=1e-05, momentum=0.1, affine=True, track_running_stats=True)
      )
      (1): Sequential(
        (0): Linear(in_features=64, out_features=64, bias=True)
        (1): ReLU()
        (2): BatchNorm1d(64, eps=1e-05, momentum=0.1, affine=True, track_running_stats=True)
      )
      (2): Sequential(
        (0): Linear(in_features=64, out_features=128, bias=True)
        (1): ReLU()
        (2): BatchNorm1d(128, eps=1e-05, momentum=0.1, affine=True, track_running_stats=True)
      )
    ), global_nn=None)
  )
  (sa2_module): SAModule(
    (conv): PointConv(local_nn=Sequential(
      (0): Sequential(
        (0): Linear(in_features=131, out_features=128, bias=True)
        (1): ReLU()
        (2): BatchNorm1d(128, eps=1e-05, momentum=0.1, affine=True, track_running_stats=True)
      )
      (1): Sequential(
        (0): Linear(in_features=128, out_features=128, bias=True)
        (1): ReLU()
        (2): BatchNorm1d(128, eps=1e-05, momentum=0.1, affine=True, track_running_stats=True)
      )
      (2): Sequential(
        (0): Linear(in_features=128, out_features=256, bias=True)
        (1): ReLU()
        (2): BatchNorm1d(256, eps=1e-05, momentum=0.1, affine=True, track_running_stats=True)
      )
    ), global_nn=None)
  )
  (sa3_module): GlobalSAModule(
    (nn): Sequential(
      (0): Sequential(
        (0): Linear(in_features=259, out_features=256, bias=True)
        (1): ReLU()
        (2): BatchNorm1d(256, eps=1e-05, momentum=0.1, affine=True, track_running_stats=True)
      )
      (1): Sequential(
        (0): Linear(in_features=256, out_features=512, bias=True)
        (1): ReLU()
        (2): BatchNorm1d(512, eps=1e-05, momentum=0.1, affine=True, track_running_stats=True)
      )
      (2): Sequential(
        (0): Linear(in_features=512, out_features=1024, bias=True)
        (1): ReLU()
        (2): BatchNorm1d(1024, eps=1e-05, momentum=0.1, affine=True, track_running_stats=True)
      )
    )
  )
  (lin1): Linear(in_features=1024, out_features=1024, bias=True)
  (lin2): Linear(in_features=1024, out_features=2048, bias=True)
  (lin3): Linear(in_features=2048, out_features=6144, bias=True)
)
Training started:
50
100
150
200
Epoch 001, Loss: 0.0038
50
100
150
200
Epoch 002, Loss: 0.0018
50
100
150
200
Epoch 003, Loss: 0.0016
50
100
150
200
Epoch 004, Loss: 0.0015
50
100
150
200
Epoch 005, Loss: 0.0014
50
100
150
200
Epoch 006, Loss: 0.0014
50
100
150
200
Epoch 007, Loss: 0.0013
50
100
150
200
Epoch 008, Loss: 0.0012
50
100
150
200
Epoch 009, Loss: 0.0012
…
