Data(category=[1], x=[2048, 3])
Net(
  (sa1_module): SAModule(
    (conv): PointConv(local_nn=Sequential(
      (0): Sequential(
        (0): Linear(in_features=6, out_features=64, bias=True)
        (1): ReLU()
        (2): BatchNorm1d(64, eps=1e-05, momentum=0.1, affine=True, track_running_stats=True)
      )
      (1): Sequential(
        (0): Linear(in_features=64, out_features=64, bias=True)
        (1): ReLU()
        (2): BatchNorm1d(64, eps=1e-05, momentum=0.1, affine=True, track_running_stats=True)
      )
      (2): Sequential(
        (0): Linear(in_features=64, out_features=128, bias=True)
        (1): ReLU()
        (2): BatchNorm1d(128, eps=1e-05, momentum=0.1, affine=True, track_running_stats=True)
      )
    ), global_nn=None)
  )
  (sa2_module): SAModule(
    (conv): PointConv(local_nn=Sequential(
      (0): Sequential(
        (0): Linear(in_features=131, out_features=128, bias=True)
        (1): ReLU()
        (2): BatchNorm1d(128, eps=1e-05, momentum=0.1, affine=True, track_running_stats=True)
      )
      (1): Sequential(
        (0): Linear(in_features=128, out_features=128, bias=True)
        (1): ReLU()
        (2): BatchNorm1d(128, eps=1e-05, momentum=0.1, affine=True, track_running_stats=True)
      )
      (2): Sequential(
        (0): Linear(in_features=128, out_features=256, bias=True)
        (1): ReLU()
        (2): BatchNorm1d(256, eps=1e-05, momentum=0.1, affine=True, track_running_stats=True)
      )
    ), global_nn=None)
  )
  (sa3_module): GlobalSAModule(
    (nn): Sequential(
      (0): Sequential(
        (0): Linear(in_features=259, out_features=256, bias=True)
        (1): ReLU()
        (2): BatchNorm1d(256, eps=1e-05, momentum=0.1, affine=True, track_running_stats=True)
      )
      (1): Sequential(
        (0): Linear(in_features=256, out_features=256, bias=True)
        (1): ReLU()
        (2): BatchNorm1d(256, eps=1e-05, momentum=0.1, affine=True, track_running_stats=True)
      )
      (2): Sequential(
        (0): Linear(in_features=256, out_features=512, bias=True)
        (1): ReLU()
        (2): BatchNorm1d(512, eps=1e-05, momentum=0.1, affine=True, track_running_stats=True)
      )
    )
  )
  (mu_lin): Linear(in_features=512, out_features=20, bias=True)
  (sig_lin): Linear(in_features=512, out_features=20, bias=True)
  (lin1): Linear(in_features=20, out_features=512, bias=True)
  (lin2): Linear(in_features=512, out_features=1024, bias=True)
  (lin3): Linear(in_features=1024, out_features=6144, bias=True)
)
Training started:
0
KLD: 63.017842610677086
CHM: 0.05760690073172251
50
KLD: 1.0048914750417073
CHM: 0.001912743008385102
100
KLD: 0.3460877736409505
CHM: 0.0013260611643393834
150
KLD: 0.172427237033844
CHM: 0.0013350024819374084
200
KLD: 0.15898295243581137
CHM: 0.0012182958113650482
Epoch 001, Loss: 4.4669
0
KLD: 0.1297090450922648
CHM: 0.0012615743714074294
…
